…
2023-07-17 12:05:03 | INFO | root | load pretrained embedding as ctc proj: /workspace/fairseq-AT/egs/machine_translation/pretrain_embeddings_mustc_ende_baseline
2023-07-17 12:05:05 | INFO | root | load pretrained encoder: /workspace/fairseq-AT/egs/machine_translation/checkpoints/mustc/ende-baseline/last8.ensemble.pt
2023-07-17 12:05:06 | INFO | root | load pretrained decoder: /workspace/fairseq-AT/egs/machine_translation/checkpoints/mustc/ende-baseline/last8.ensemble.pt
2023-07-17 12:05:06 | INFO | root | share the sematic adapter and textual encoder
2023-07-17 12:05:06 | INFO | fairseq_cli.train | S2TJoint(
  (acoustic_encoder): AcousticEncoder(
    (compress_ffn): Linear(in_features=768, out_features=512, bias=True)
    (proj): Linear(in_features=512, out_features=10000, bias=False)
    (w2v_model): HubertModel(
      (feature_extractor): ConvFeatureExtractionModel(
        (conv_layers): ModuleList(
          (0): Sequential(
            (0): Conv1d(1, 512, kernel_size=(10,), stride=(5,), bias=False)
            (1): Dropout(p=0.0, inplace=False)
            (2): Fp32GroupNorm(512, 512, eps=1e-05, affine=True)
            (3): GELU(approximate='none')
          )
          (1-4): 4 x Sequential(
            (0): Conv1d(512, 512, kernel_size=(3,), stride=(2,), bias=False)
            (1): Dropout(p=0.0, inplace=False)
            (2): GELU(approximate='none')
          )
          (5-6): 2 x Sequential(
            (0): Conv1d(512, 512, kernel_size=(2,), stride=(2,), bias=False)
            (1): Dropout(p=0.0, inplace=False)
            (2): GELU(approximate='none')
          )
        )
      )
      (post_extract_proj): Linear(in_features=512, out_features=768, bias=True)
      (dropout_input): Dropout(p=0.0, inplace=False)
      (dropout_features): Dropout(p=0.1, inplace=False)
      (encoder): TransformerEncoder(
        (pos_conv): Sequential(
          (0): Conv1d(768, 768, kernel_size=(128,), stride=(1,), padding=(64,), groups=16)
          (1): SamePad()
          (2): GELU(approximate='none')
        )
        (layers): ModuleList(
          (0-11): 12 x TransformerSentenceEncoderLayer(
            (self_attn): MultiheadAttention(
              (dropout_module): FairseqDropout()
              (k_proj): Linear(in_features=768, out_features=768, bias=True)
              (v_proj): Linear(in_features=768, out_features=768, bias=True)
              (q_proj): Linear(in_features=768, out_features=768, bias=True)
              (out_proj): Linear(in_features=768, out_features=768, bias=True)
            )
            (dropout1): Dropout(p=0.1, inplace=False)
            (dropout2): Dropout(p=0.1, inplace=False)
            (dropout3): Dropout(p=0.1, inplace=False)
            (self_attn_layer_norm): LayerNorm((768,), eps=1e-05, elementwise_affine=True)
            (fc1): Linear(in_features=768, out_features=3072, bias=True)
            (fc2): Linear(in_features=3072, out_features=768, bias=True)
            (final_layer_norm): LayerNorm((768,), eps=1e-05, elementwise_affine=True)
          )
        )
        (layer_norm): LayerNorm((768,), eps=1e-05, elementwise_affine=True)
      )
      (layer_norm): LayerNorm((512,), eps=1e-05, elementwise_affine=True)
      (final_proj): None
    )
    (noad): NormalAdapter(
      (subsample): Conv1dSubsampler(
        (conv_layers): ModuleList(
          (0): Conv1d(512, 512, kernel_size=(5,), stride=(2,), padding=(2,))
          (1): Conv1d(256, 1024, kernel_size=(5,), stride=(2,), padding=(2,))
        )
      )
      (layers): ModuleList()
    )
    (sead): SemanticAdapter(
      (embed_positions): SinusoidalPositionalEmbedding()
      (layers): ModuleList(
        (0-5): 6 x TransformerEncoderLayerBase(
          (self_attn): MultiheadAttention(
            (dropout_module): FairseqDropout()
            (k_proj): Linear(in_features=512, out_features=512, bias=True)
            (v_proj): Linear(in_features=512, out_features=512, bias=True)
            (q_proj): Linear(in_features=512, out_features=512, bias=True)
            (out_proj): Linear(in_features=512, out_features=512, bias=True)
          )
          (self_attn_layer_norm): LayerNorm((512,), eps=1e-05, elementwise_affine=True)
          (dropout_module): FairseqDropout()
          (activation_dropout_module): FairseqDropout()
          (fc1): Linear(in_features=512, out_features=1024, bias=True)
          (fc2): Linear(in_features=1024, out_features=512, bias=True)
          (final_layer_norm): LayerNorm((512,), eps=1e-05, elementwise_affine=True)
        )
      )
      (layer_norm): LayerNorm((512,), eps=1e-05, elementwise_affine=True)
    )
    (final_dropout): Dropout(p=0.1, inplace=False)
    (shrink_layer_norm): LayerNorm((512,), eps=1e-05, elementwise_affine=True)
  )
  (textual_encoder): MTModelEncoder(
    (dropout_module): FairseqDropout()
    (embed_tokens): Embedding(10000, 512, padding_idx=1)
    (embed_positions): SinusoidalPositionalEmbedding()
    (layers): ModuleList(
      (0-5): 6 x TransformerEncoderLayerBase(
        (self_attn): MultiheadAttention(
          (dropout_module): FairseqDropout()
          (k_proj): Linear(in_features=512, out_features=512, bias=True)
          (v_proj): Linear(in_features=512, out_features=512, bias=True)
          (q_proj): Linear(in_features=512, out_features=512, bias=True)
          (out_proj): Linear(in_features=512, out_features=512, bias=True)
        )
        (self_attn_layer_norm): LayerNorm((512,), eps=1e-05, elementwise_affine=True)
        (dropout_module): FairseqDropout()
        (activation_dropout_module): FairseqDropout()
        (fc1): Linear(in_features=512, out_features=1024, bias=True)
        (fc2): Linear(in_features=1024, out_features=512, bias=True)
        (final_layer_norm): LayerNorm((512,), eps=1e-05, elementwise_affine=True)
      )
    )
    (layer_norm): LayerNorm((512,), eps=1e-05, elementwise_affine=True)
  )
  (decoder): TransformerDecoderScriptable(
    (dropout_module): FairseqDropout()
    (embed_tokens): Embedding(10000, 512, padding_idx=1)
    (embed_positions): SinusoidalPositionalEmbedding()
    (layers): ModuleList(
      (0-5): 6 x TransformerDecoderLayerBase(
        (dropout_module): FairseqDropout()
        (self_attn): MultiheadAttention(
          (dropout_module): FairseqDropout()
          (k_proj): Linear(in_features=512, out_features=512, bias=True)
          (v_proj): Linear(in_features=512, out_features=512, bias=True)
          (q_proj): Linear(in_features=512, out_features=512, bias=True)
          (out_proj): Linear(in_features=512, out_features=512, bias=True)
        )
        (activation_dropout_module): FairseqDropout()
        (self_attn_layer_norm): LayerNorm((512,), eps=1e-05, elementwise_affine=True)
        (encoder_attn): MultiheadAttention(
          (dropout_module): FairseqDropout()
          (k_proj): Linear(in_features=512, out_features=512, bias=True)
          (v_proj): Linear(in_features=512, out_features=512, bias=True)
          (q_proj): Linear(in_features=512, out_features=512, bias=True)
          (out_proj): Linear(in_features=512, out_features=512, bias=True)
        )
        (encoder_attn_layer_norm): LayerNorm((512,), eps=1e-05, elementwise_affine=True)
        (fc1): Linear(in_features=512, out_features=1024, bias=True)
        (fc2): Linear(in_features=1024, out_features=512, bias=True)
        (final_layer_norm): LayerNorm((512,), eps=1e-05, elementwise_affine=True)
      )
    )
    (layer_norm): LayerNorm((512,), eps=1e-05, elementwise_affine=True)
    (output_projection): Linear(in_features=512, out_features=10000, bias=False)
  )
  (task_net): TaskNetwork(
    (layer_norm): LayerNorm((512,), eps=1e-05, elementwise_affine=True)
    (down_proj): Linear(in_features=512, out_features=256, bias=True)
    (up_proj): Linear(in_features=256, out_features=512, bias=True)
    (dropout_module): FairseqDropout()
    (task_proj): Linear(in_features=512, out_features=1, bias=False)
  )
)
2023-07-17 12:05:06 | INFO | fairseq_cli.train | task: JointTriplePretrainingTask
2023-07-17 12:05:06 | INFO | fairseq_cli.train | model: S2TJoint
2023-07-17 12:05:06 | INFO | fairseq_cli.train | criterion: LabelSmoothedCrossEntropywithW2vCtcShrinkJointAT
2023-07-17 12:05:06 | INFO | fairseq_cli.train | num. shared model params: 134,449,280 (num. trained: 134,449,280)
…
